…
\nprint('\\n🔍 Exemplo de predições:')\nfor i in range(10):\n    print(f'   Imagem {i+1}: Real={class_names[y_test[i]]} | Predito={class_names[predicted_classes[i]]}')",
      "cmdOutput": "👕 CLASSIFICAÇÃO DE MODA - FASHION MNIST\n\n📊 Dados de treino: (60000, 28, 28)\n📊 Dados de teste: (10000, 28, 28)\n🎯 Classes: 10\n\n🏗️ Arquitetura do modelo:\nModel: \"sequential\"\n_________________________________________________________________\n Layer (type)                Output Shape              Param #   \n=================================================================\n flatten (Flatten)           (None, 784)               0         \n dense (Dense)               (None, 128)               100480    \n dropout (Dropout)           (None, 128)               0         \n dense_1 (Dense)             (None, 64)                8256      \n dropout_1 (Dropout)         (None, 64)                0         \n dense_2 (Dense)             (None, 10)                650       \n=================================================================\nTotal params: 109,386\nTrainable params: 109,386\nNon-trainable params: 0\n_________________________________________________________________\n\n🚀 INICIANDO TREINAMENTO...\n\nEpoch 1/20\n1500/1500 ━━━━━━━━━━━━━━━━━━━━ 6s 3ms/step - accuracy: 0.7471 - loss: 0.7238 - val_accuracy: 0.8678 - val_loss: 0.3746\nEpoch 2/20\n1500/1
…
mento.keras')\nprint('\\n✅ Modelo salvo como modelo_sentimento.keras')",
      "cmdOutput": "💬 CLASSIFICAÇÃO DE SENTIMENTOS - IMDB\n\n📊 Dados de treino: (25000, 200)\n📊 Dados de teste: (25000, 200)\n🎯 Distribuição treino - Positivos: 12500, Negativos: 12500\n🎯 Distribuição teste - Positivos: 12500, Negativos: 12500\n\n🏗️ Arquitetura do modelo:\nModel: \"sequential\"\n_________________________________________________________________\n Layer (type)                Output Shape              Param #   \n=================================================================\n embedding (Embedding)       (None, 200, 128)         1280000   \n bidirectional (Bidirection  (None, 200, 128)         98816     \n al)                                                             \n bidirectional_1 (Bidirecti  (None, 64)               41216     \n onal)                                                           \n dense (Dense)               (None, 64)                4160      \n dropout (Dropout)           (None, 64)                0         \n dense_1 (Dense)             (None, 1)                 65        \n=================================================================\nTotal params: 1,424,257\nTrainable params: 1,424,257\nNon-trainable params: 0\n_________________________________________________________________\n\n🚀 INICIANDO TREINAMENTO...\n\nEpoch 1/10\n157/157 ━━━━━━━━━━━━━━━━━━━━ 124s 785ms/step - accuracy: 0.6124 - loss: 0.6421 - val_accuracy: 0.8312 - val_loss: 0.3892 - learning_r
…
